model.tflite (tflite, 666024 bytes, 8 tensors)

sequential/conv1d/BiasAdd/ReadVariableOp f4 [64]
0	0x3df414eb	0.11918052
1	0xbce1143e	-0.027475473
2	0x3dced099	0.100983806
3	0x3d70f811	0.058830325
4	0xbd40fbd8	-0.047115177
5	0xbc3ee5f1	-0.011651502
6	0xbcde5d62	-0.027144138
7	0x3e2d9f5c	0.16955322
8	0x3da5b960	0.08091998
9	0x3c46ff6d	0.012145859
10	0x3c07a817	0.008279822
11	0xbbe8d6b7	-0.007105674
12	0x3e429a63	0.19004206
13	0xbbb1baa7	-0.005423862
14	0x3ddba3c1	0.10724593
15	0x3c2f70da	0.010708058
16	0x3cc028b8	0.023456916
17	0xbc4ac580	-0.012376189
18	0x3e135de5	0.14391287
19	0x3e084238	0.1330651
20	0xbbdf846b	-0.0068212054
21	0xba5f17b3	-0.00085103064
22	0x3bc0cb1d	0.005883588
23	0x3c9aa8ad	0.018879259
24	0x3cbc34ea	0.02297445
25	0xba763033	-0.00093913375
26	0x3ccd62f4	0.025071599
27	0xbd4fd9af	-0.05074471
28	0xbc14b7e5	-0.009077047
29	0x3cb76820	0.022388518
30	0xbb45402e	-0.0030098069
31	0xbd01c8d7	-0.031685676
32	0x3da4273a	0.080152944
33	0x3e0beb35	0.13663943
34	0xbbb3b759	-0.005484503
35	0x3dd2ab4f	0.10286581
36	0x3ce6925f	0.028145967
37	0xbcd9cc0e	-0.026586559
38	0x3c14e9dc	0.00908896
39	0x3e6fe6ce	0.23427889
40	0xbd0d3be4	-0.034480944
41	0xbe178dfd	-0.14800258
42	0xbb0cec38	-0.0021503102
43	0x3c1d2062	0.00959024
44	0xbacb0a00	-0.0015490651
45	0xbb30f56e	-0.0027001756
46	0x3e14383b	0.14474575
47	0x3cb47e19	0.022032784
48	0xbd31c101	-0.043396953
49	0x3de0c83b	0.10975691
50	0xbab85ccd	-0.0014065743
51	0xbca39058	-0.01996629
52	0x3e69cede	0.2283282
53	0x3e2a157f	0.16609763
54	0xbe7a5666	-0.24447021
55	0x3dc92aa0	0.09822583
56	0x3de3a0cb	0.11114653
57	0x3d6ef7d5	0.05834182
58	0x3dba1c33	0.0908741
59	0x3cd350a9	0.025795298
60	0xbbdbbe20	-0.0067060143
61	0xbd25ccc6	-0.04047849
62	0x3ed97fb3	0.4248024
63	0xbba9541d	-0.005167498

sequential/conv1d_1/BiasAdd/ReadVariableOp f4 [64]
0	0x3db5923e	0.08865784
1	0x3c3ee33a	0.011650855
2	0x3d748056	0.059692703
3	0x3dad580e	0.08464061
4	0x3ec19d64	0.37815392
5	0x3e61f1ef	0.22064947
6	0x3e6fcd0d	0.23418064
7	0x3d9bb054	0.07601991
8	0x3e59e8fa	0.2128028
9	0x3e37d75f	0.17953251
10	0x3e4d2fc6	0.20037755
11	0xbbb6ea3c	-0.005582122
12	0xbd8be83b	-0.06831404
13	0x3e0508b4	0.12991601
14	0xbe81c4b4	-0.25345385
15	0x3e0a4167	0.13501512
16	0x3e07b34b	0.13251989
17	0x3d88b08e	0.066743
18	0x3c8062f3	0.015672183
19	0x3e36940f	0.17829917
20	0xbe23654f	-0.15956615
21	0x3e27652e	0.1634719
22	0x3e0c75d5	0.13716824
23	0x3ddd74cc	0.10813293
24	0x3e1fcd93	0.15605764
25	0x3ea3ed7d	0.32017127
26	0x3dfb2142	0.12262203
27	0x3dca315e	0.09872697
28	0x3cba63ea	0.02275272
29	0x3d965019	0.07339496
30	0xbe2dac82	-0.16960338
31	0x3e0fdc1b	0.14048807
32	0x3e080900	0.13284683
33	0x3e1f2fe8	0.15545619
34	0x3e2fc26d	0.17164011
35	0xbd44dd4a	-0.0480626
36	0x3e4021d9	0.18762912
37	0x3e46c191	0.19409777
38	0x3e491687	0.196375
39	0x3e25681d	0.16152997
40	0x3e03340d	0.12812825
41	0x3e835e9c	0.2565812
42	0x3e254771	0.16140534
43	0x3dcd1116	0.100130245
44	0x3e3990f9	0.18121709
45	0x3e45b842	0.1930857
46	0x3ea2368e	0.31682247
47	0x3b752e59	0.0037411659
48	0x3d8c8fd8	0.068633735
49	0x3c8b32dc	0.016992025
50	0x3dd83c40	0.10558367
51	0x3ed3a4b6	0.41336602
52	0x3e156860	0.14590597
53	0x3e5d30e6	0.21600685
54	0x3d56b7a7	0.05242124
55	0x3e784bd9	0.24247684
56	0x3e39eafb	0.18156044
57	0xbe0d2651	-0.13784148
58	0x3d801718	0.06254405
59	0x3dd69c7f	0.10479068
60	0x3db827d1	0.089919694
61	0x3ecfa23d	0.40553465
62	0x3db02222	0.0860026
63	0x3c2f7374	0.0107086785

sequential/conv1d/Conv1D f4 [64, 1, 3, 6]
0	0xbda13e80	-0.07873249
1	0x3e02362e	0.1271598
2	0xbe188eaf	-0.1489818
3	0x3e5ef26d	0.21772166
4	0x3d2679ae	0.040643387
5	0x3df3970d	0.11894045
6	0xbe3b8d01	-0.18315507
7	0x3da6f7b7	0.081527166
8	0x3e45d181	0.193182
9	0x3df5f9e0	0.120105505
10	0x3dd4cf4b	0.103911005
11	0x3e0c4c52	0.13700989
12	0xbda3d58b	-0.079997145
13	0x3e8fc546	0.28080195
14	0x3e0e2965	0.13882978
15	0xbdc864d3	-0.09784856
16	0x3d545840	0.051841974
17	0x3e5c0e20	0.21489763
18	0x3d6b933b	0.057513457
19	0xbc1ef9b6	-0.00970309
20	0xbbb98697	-0.0056617963
21	0xbd8eade1	-0.069667585
22	0x3e577f6c	0.21044701
23	0xbe334971	-0.17508484
24	0xbd473e7c	-0.048643574
25	0x3e3ced62	0.1844993
26	0x3bb978d3	0.0056601553
27	0xbe1710af	-0.14752458
28	0x3e6aab23	0.22916846
29	0xbe21b853	-0.1579297
30	0xbe269f03	-0.16271596
31	0x3e33b284	0.17548567
32	0xbe05a3a3	-0.13050704
33	0x3e410268	0.18848574
34	0xbd78f6b7	-0.06078216
35	0xbbb65647	-0.0055644843
36	0x3e6981e9	0.22803463
37	0xbd01e635	-0.031713683
38	0xba668552	-0.000879367
39	0x3e1bae94	0.15203315
40	0x3c62092b	0.013796131
41	0xbd87b4ab	-0.066262566
42	0xbcb80203	-0.022461897
43	0xbd1d38dc	-0.038384303
44	0x3e033390	0.12812638
45	0x3de36bdf	0.11104559
46	0x3e2615c4	0.1621924
47	0x3e14e356	0.14539847
48	0xbd56d34c	-0.052447602
49	0x3df6083d	0.1201329
50	0xbd3eb901	-0.046563152
51	0xbcc48c44	-0.023992665
52	0x3df9b837	0.12193339
53	0x3df45399	0.119300075
54	0x3dd7ee82	0.10543539
55	0xbdeef305	-0.11667446
56	0x3e3b8ce0	0.18315458
57	0x3e1033db	0.14082281
58	0xbdb9ce28	-0.09072524
59	0x3e3fdb20	0.18735933
60	0x3ce23b35	0.027616123
61	0x3df00b5e	0.11720918
62	0xbd924e00	-0.071437836
63	0xbdf1a611	-0.11799253
64	0x3e140987	0.1445676
65	0xbde42255	-0.11139361
66	0x3dc69235	0.096958555
67	0xbde92583	-0.11384108
68	0xbb12ceb5	-0.002240104
69	0x3dbe6b4e	0.092978105
70	0xbd73035a	-0.05932937
71	0x3e166b49	0.14689364
72	0x3da065e1	0.07831932
73	0x3dc96b5e	0.09834932
74	0xbd1b20e0	-0.03787315
75	0xbe01c8d6	-0.12674269
76	0xbe39388d	-0.18087979
77	0x3d7eebdb	0.062236648
78	0xbca82893	-0.02052716
79	0xbe34bc2f	-0.17649911
80	0xbe8b36b7	-0.27190182
81	0x3d4992b9	0.04921219
82	0x3de8e581	0.113718994
83	0xbe64f4d8	-0.22359025
84	0x3c6b230a	0.014351616
85	0xbe895493	-0.26822338
86	0xbe05d113	-0.13068037
87	0x3dcb94e3	0.09940507
88	0x3da2817b	0.07934853
89	0xbe80a186	-0.25123233
90	0xbd42a55c	-0.04752098
91	0x3dc92977	0.09822362
92	0x3da28fa4	0.079375535
93	0x3e498e87	0.19683276
94	0x3d98d43b	0.07462355
95	0xbdad6d4d	-0.08468113
96	0xbe462419	-0.19349708
97	0xbe4bb677	-0.19893824
98	0xbe72769e	-0.23678061
99	0x3cee37a4	0.029079266
100	0xbdf72af8	-0.120687425
101	0xbdb0ad15	-0.08626763
102	0xbdbc2885	-0.09187416
103	0x3e551eca	0.20812526
104	0x3e5a062b	0.21291415
105	0x3cd05d97	0.025435252
106	0x3e4cd08e	0.20001432
107	0xbdce0ace	-0.100606546
108	0xbd3dbb0b	-0.046320956
109	0xbdea11e4	-0.114291936
110	0x3db4f2b0	0.088353515
111	0xbdbc4acd	-0.091939546
112	0xbdc5fa5e	-0.096668944
113	0x3da75e9d	0.08172343
114	0x3d73727c	0.059435353
115	0x3dede346	0.116156146
116	0xbd86c246	-0.065800235
117	0x3e1f5680	0.15560341
118	0xbdfedfa5	-0.124450006
119	0xbdbb3b45	-0.09142164
120	0xbe23ded3	-0.1600297
121	0xbd120190	-0.03564602
122	0x3cef743d	0.029230231
123	0x3c6b64c9	0.014367291
124	0x3e7426cc	0.23842925
125	0x3cd18011	0.025573762
126	0x3d55a167	0.05215588
127	0x3e6adf4a	0.2293674
128	0x3dac926e	0.08426367
129	0x3e58a8ef	0.21158193
130	0xbbce0def	-0.006288282
131	0x3db1142c	0.086464256
132	0x3e1b09ee	0.15140507
133	0x3e3b9a2e	0.18320534
134	0x3d8b9128	0.06814796
135	0x3e870ef8	0.26378608
136	0x3e0100e9	0.12598003
137	0x3d6e1fd7	0.058135834
138	0x3e57c7ab	0.21072261
139	0xbcf6a4d2	-0.03010789
140	0xbbb710e1	-0.005586729
141	0x3cbb0761	0.022830667
142	0xbe069056	-0.13140997
143	0x3dcb041d	0.09912894
144	0xbd72a4dd	-0.059239257
145	0x3db57d0a	0.0886174
146	0x3da0ce27	0.078518204
147	0x3ae4fbc9	0.0017470057
148	0xbe482aa5	-0.19547518
149	0xbe4d4b21	-0.2004819
150	0x3d13b6fa	0.036063172
151	0x3d15947f	0.03651857
152	0x3d453800	0.04814911
153	0x3e457056	0.19281134
154	0x3e40e6a0	0.18837976
155	0x3e428d5c	0.18999237
156	0x3cfe8266	0.031068038
157	0x3d9e9845	0.07743887
158	0xbd31d33d	-0.043414343
159	0xbddef52b	-0.10886606
160	0x3d59bf25	0.053160805
161	0x3c62d0ba	0.01384371
162	0xbe591495	-0.21199258
163	0xbde82367	-0.113348775
164	0xbca4c451	-0.020113142
165	0xbe37dd57	-0.17955528
166	0xbd95a869	-0.07307512
167	0x3db12001	0.086486824
168	0x3dfbd90b	0.12297257
169	0x3e7a0c21	0.2441869
170	0x3e0fe1b7	0.14050947
171	0x3dc5ad66	0.09652214
172	0x3e6497ff	0.22323607
173	0xbcfe6b74	-0.031057097
174	0x3df94d5a	0.12172957
175	0xbdb482fd	-0.088140465
176	0xbd832cc0	-0.0640502
177	0xbe3c530f	-0.1839106
178	0xbdaf637b	-0.08563896
179	0xbe3503c7	-0.17677222
180	0x3e5d08ee	0.21585438
181	0x3e047589	0.12935461
182	0x3dd394ed	0.1033114
183	0xbcdf02bf	-0.02722299
184	0xbe1cbea1	-0.15307094
185	0xbe6a8304	-0.22901541
186	0x3e464961	0.1936393
187	0xbe03730f	-0.1283686
188	0x3da34dfe	0.0797386
189	0xbde611c1	-0.11233855
190	0x3d901ecd	0.07037125
191	0x3d692e72	0.05692906
192	0x3d0e54ec	0.034748957
193	0xbc0835f3	-0.008313644
194	0xbdf2453c	-0.11829612
195	0xbe5b02c8	-0.2138778
196	0xbdbce0b7	-0.092225485
197	0xbd837a63	-0.06419828
198	0x3ca9a1cf	0.02070704
199	0x3e48a5fd	0.1959457
200	0xbe127a08	-0.14304364
201	0x3d58971d	0.052878488
202	0xbd31583d	-0.04329704
203	0x3cd5270e	0.0260196
204	0xbc841c4a	-0.01612677
205	0x3d437a0d	0.04772382
206	0xbdb22543	-0.08698513
207	0xbe902052	-0.28149658
208	0xbdb13563	-0.08652761
209	0xbe0cac2a	-0.1373755
210	0xbd51fd10	-0.05126673
211	0x3e0362b5	0.12830622
212	0x3dce56d7	0.10075157
213	0x3e5f855a	0.21828213
214	0x3e1d56a4	0.15365082
215	0x3e04907a	0.12945738
216	0xbde9d8a4	-0.11418274
217	0x3d9a9720	0.07548356
218	0x3e53f876	0.20700249
219	0xbe2d20f9	-0.1690711
220	0x3e46be4c	0.1940853
221	0xbdf7afc0	-0.120940685
222	0x3df90c99	0.12160606
223	0xbe78081a	-0.2422184
224	0x3e85b29e	0.26112837
225	0xbd447e18	-0.047971815
226	0x3d04a9b7	0.032388415
227	0x3e11de87	0.14245044
228	0x3d58d3aa	0.052936234
229	0xbe1a273e	-0.15054032
230	0x3d2deff8	0.04246518
231	0x3e3cc924	0.18436104
232	0xb8538df8	-5.043854e-05
233	0xbe998e51	-0.2999139
234	0xbdd2b75b	-0.102888785
235	0x3dbf6ea3	0.09347274
236	0xbda7498b	-0.08168324
237	0xbe9fd59a	-0.31217653
238	0x3c0766ff	0.008264302
239	0x3e6c18be	0.23056313
240	0xbe00bf2c	-0.12572926
241	0x3e3d3ecc	0.18480986
242	0x3d5c0ce4	0.05372323
243	0xbdfe2a83	-0.12410452
244	0x3e02dd80	0.12779808
245	0xbdb7b7c1	-0.08970595
246	0x3e0d4d7c	0.13799089
247	0x3d7c1ca1	0.06155074
248	0xbe46db1a	-0.19419518
249	0x3d0907b8	0.033454627
250	0xbdb70ecc	-0.08938369
251	0x3bfc00a7	0.0076905075
252	0xbc8188ff	-0.015812395
253	0xbe2f35cc	-0.17110366
254	0x3e14ab4a	0.14518467
255	0xbdba4c87	-0.09096628

sequential/conv1d_1/Conv1D f4 [64, 1, 3, 64]
0	0xbe1ce9ee	-0.15323612
1	0x3c69a35a	0.014260137
2	0xbdca2b00	-0.09871483
3	0x3a5952ed	0.000829025
4	0xbd33c0f1	-0.043885175
5	0xbc4a23b3	-0.012337613
6	0xbdb3d19a	-0.08780213
7	0x3d3adddf	0.04562175
8	0xbdae3be5	-0.08507518
9	0xbd35363d	-0.04424118
10	0xbd82055f	-0.06348681
11	0xbcfef564	-0.03112287
12	0xbe36dd58	-0.17857873
13	0xbe5847be	-0.21121117
14	0xbdf8a2b6	-0.1214041
15	0xbc6bb97c	-0.014387485
16	0xbd96e57a	-0.07367988
17	0xbd13a863	-0.036049258
18	0x3d7fe808	0.06247714
19	0xbdfa45a3	-0.122203134
20	0xbe03192f	-0.12802576
21	0xbe34df28	-0.17663252
22	0xbd85ba36	-0.065296575
23	0xbdaba6d8	-0.08381432
24	0x3da7978f	0.081832044
25	0x3e0fde5d	0.14049669
26	0x3d8d561c	0.0690119
27	0xbe0e278c	-0.13882273
28	0xbd8191fa	-0.06326671
29	0xbe257ee0	-0.1616168
30	0xbcfef12b	-0.031120857
31	0xbda4b409	-0.080421515
32	0x3dd1133f	0.10208749
33	0x3dc98c7f	0.09841251
34	0xbd646672	-0.055761762
35	0xbdde9c56	-0.108696625
36	0xbde89beb	-0.11357864
37	0xbde70023	-0.11279323
38	0xbd3efea9	-0.04662958
39	0x3d0667a8	0.032813698
40	0x3b8000a9	0.0039063287
41	0xbd3c59bd	-0.04598402
42	0xbcddc3ef	-0.027070967
43	0x3dd9d742	0.1063676
44	0xbd89750f	-0.0671178
45	0x3d355e35	0.044279296
46	0xbd8960ee	-0.06707941
47	0x3e0c2373	0.13685398
48	0xbe1b7a3d	-0.15183349
49	0xbe265043	-0.16241555
50	0x3d82ba2e	0.06383167
51	0x3db3485b	0.08754035
52	0x3dd6468f	0.10462677
53	0xbe215377	-0.15754496
54	0xbdf7c135	-0.12097398
55	0x3d91d22f	0.071201675
56	0x3dcc40f1	0.09973324
57	0x3c909825	0.017650673
58	0xbd33b16e	-0.043870382
59	0xbd8065a5	-0.06269387
60	0xbe28bc4d	-0.16478081
61	0x3bccdda0	0.0062520057
62	0x3de5f8fb	0.1122913
63	0xbde6c044	-0.112671405
64	0x3d684f3b	0.056716185
65	0x3b6fb22b	0.0036574702
66	0xbdaaf7db	-0.08348056
67	0xbe1f49f7	-0.15555559
68	0xbd0350bf	-0.032059427
69	0xbcb609b2	-0.02222142
70	0xbe07d250	-0.13263822
71	0xbc258c19	-0.010104203
72	0xb720e5a0	-9.590207e-06
73	0x3a0e61aa	0.0005431423
74	0xbdb3e525	-0.0878394
75	0xbda0465d	-0.07825921
76	0xbe4c7a8c	-0.19968623
77	0xbdac28a4	-0.08406189
78	0x3de1b900	0.11021614
79	0xbd38aca2	-0.04508651
80	0xbe4fbb30	-0.2028625
81	0xbdb3e12e	-0.08783184
82	0xbcab0048	-0.020874158
83	0x3c170441	0.009217323
84	0xbe03e1ee	-0.12879154
85	0xbd5ba1eb	-0.053621214
86	0x3df95a9c	0.121754855
87	0xbda0eb87	-0.07857423
88	0xbd94b9ff	-0.072620384
89	0x3dcfad3c	0.10140464
90	0xbdcf0ff5	-0.101104654
91	0xbd8914cd	-0.066934206
92	0x3d46bc86	0.048519634
93	0xbd065c22	-0.03280271
94	0x3d7a87ea	0.061164774
95	0xbd250182	-0.04028464
96	0xbd983f39	-0.07433934
97	0x3dc3bc7a	0.095574334
98	0xbe02154f	-0.12703441
99	0xbc413b18	-0.011793874
100	0xbe09b8fa	-0.13449469
101	0xbdf27014	-0.118377835
102	0x3e1992e7	0.14997445
103	0xbdfb6753	-0.12275567
104	0xbbc700dd	-0.006073101
105	0x3d9791f1	0.07400883
106	0xbcf4a23c	-0.029862516
107	0x3df791ec	0.12088379
108	0x3d9463cb	0.072455965
109	0x3cda27bd	0.026630277
110	0x3dfbfa6a	0.12303622
111	0x3a06be1c	0.0005140023
112	0x3cedeb1f	0.029042779
113	0xbe0e51c7	-0.13898383
114	0x3da2d26a	0.079502895
115	0xbe2a11fd	-0.16608424
116	0x3dea7e78	0.11449903
117	0x3d6c6829	0.057716522
118	0x3d83242d	0.06403384
119	0xbcfaa7ee	-0.030597653
120	0x3c1f499d	0.009722141
121	0x3d851046	0.064972445
122	0xbda6e9cd	-0.08150063
123	0xbbe12f0f	-0.006872065
124	0xbb2fde10	-0.002683524
125	0xbd543db0	-0.051816642
126	0xbd97fb7d	-0.074210145
127	0xbdaec40c	-0.08533487
128	0xbdda024a	-0.10644968
129	0xbd1c5b37	-0.038172927
130	0x3dc771f4	0.09738532
131	0x3d49223a	0.049104907
132	0x3e02527c	0.12726778
133	0x3c574c03	0.013140681
134	0xbdeb848d	-0.114998914
135	0xbd1d317b	-0.038377266
136	0xbd35393c	-0.044244036
137	0xbe318853	-0.1733716
138	0x3c5f0d4d	0.013614011
139	0xbcbf2d51	-0.023337038
140	0x3e137b15	0.14402421
141	0xbb36d95e	-0.0027900557
142	0xbda7fbde	-0.08202337
143	0x3c893882	0.016750578
144	0x3c62cb47	0.01384241
145	0xbd426f33	-0.04746933
146	0x3cb7dae3	0.02244324
147	0x3d17cc8c	0.037060305
148	0xbe489fd0	-0.19592214
149	0xbdb0a247	-0.08624702
150	0xbcc4128d	-0.023934627
151	0xbdd3bd8e	-0.10338889
152	0xbd317046	-0.043319963
153	0x3dfa0b41	0.12209178
154	0xbd1fb187	-0.038987663
155	0x3ce9f245	0.028557906
156	0x3d36cebb	0.044630747
157	0xbd49a546	-0.049229883
158	0xbdc92f6e	-0.098234996
159	0xbd711a6f	-0.0588631
160	0x3d546f8c	0.051864192
161	0x3de4cb7e	0.111716256
162	0xbd01c530	-0.031682193
163	0xbc54aa45	-0.012980049
164	0xbe4f3e29	-0.20238556
165	0xbe2ee544	-0.17079645
166	0x3e0681b9	0.13135423
167	0x3e0267ae	0.12734863
168	0x3d0f9d7c	0.0350623
169	0x3b87bcb3	0.0041423677
170	0xbda14e37	-0.078762464
171	0xbc0a866f	-0.008454903
172	0x3d99a8fe	0.07502936
173	0xbc91be07	-0.017790807
174	0x3d9e03fd	0.077156045
175	0x3de7ecfd	0.11324499
176	0xbe31cd7b	-0.17363541
177	0xbcf7110c	-0.030159496
178	0xbdde9a61	-0.10869289
179	0xbe633c0e	-0.22190878
180	0xbcbfa3ae	-0.023393478
181	0x3deac590	0.11463463
182	0x3df1e1dd	0.11810658
183	0xbdc5b40c	-0.09653482
184	0xbdc1ca6b	-0.09462436
185	0x3c76907e	0.015049098
186	0x3dbdf335	0.09274904
187	0xbdd30bff	-0.103050224
188	0xbdea5189	-0.11441333
189	0xbdee9009	-0.11648566
190	0x3d517eec	0.051146433
191	0xbce06f45	-0.027396807
192	0xbcdab6b0	-0.02669844
193	0x3d2363a2	0.03988994
194	0x3d5d2209	0.053987537
195	0xbc11d51f	-0.00890091
196	0xbb0a4d03	-0.0021103031
197	0xbc910c20	-0.017705977
198	0x3dc68fe8	0.09695417
199	0x3cdc724c	0.02690997
200	0x3d9e8240	0.07739687
201	0x3cc1a876	0.023639899
202	0x3e0cae6d	0.13738413
203	0xbdee243d	-0.11628006
204	0xbcc9ed86	-0.024649393
205	0x3d8aca10	0.067768216
206	0x3da451d7	0.08023422
207	0x3cdd4265	0.027009198
208	0x3d9726d0	0.0738045
209	0x3d0d3c74	0.03448148
210	0xbcc01827	-0.023449017
211	0xbd0ee510	-0.03488642
212	0xbd725e6b	-0.059172075
213	0x3df38515	0.11890618
214	0x3d8ee030	0.06976354
215	0xbdef7f6c	-0.11694226
216	0x3b0105f5	0.0019687389
217	0xbd6e6746	-0.058203958
218	0x3d942c15	0.072349705
219	0x3c43a12c	0.011940282
220	0xba837902	-0.001003057
221	0x3c9a4af6	0.018834572
222	0xbc82ab63	-0.015950864
223	0xbe130c8c	-0.14360255
224	0x3dc04311	0.09387792
225	0xbd9623d4	-0.073310524
226	0xbd0e662f	-0.03476542
227	0x3d234905	0.03986456
228	0xbdd17b5e	-0.102286085
229	0xbd890cab	-0.06691869
230	0xbbf1f5a7	-0.0073840204
231	0xbd346b11	-0.04404742
232	0x3dd8eb73	0.105917834
233	0x3e2862b6	0.16443905
234	0xbdab0024	-0.08349636
235	0xbe39ae7e	-0.1813297
236	0x3e3bb80c	0.18331927
237	0xbe29aa8d	-0.16568966
238	0xbe06d108	-0.13165677
239	0x3d8bded2	0.06829609
240	0xbdc63582	-0.096781746
241	0x3cde4412	0.027132068
242	0xbd7260b5	-0.05917426
243	0xbe107d43	-0.14110284
244	0x3df6f078	0.120575845
245	0x3d06b4e4	0.032887354
246	0xbe2c2eba	-0.168147
247	0xbdc8c6e9	-0.09803564
248	0xbe0c6137	-0.1370896
249	0x3e0e5cd0	0.13902593
250	0x3df65b04	0.120290786
251	0x3daaa098	0.08331412
252	0xbd04759c	-0.032338724
253	0xbc935a0e	-0.017987277
254	0x3db1af8e	0.086760625
255	0xbe1847ca	-0.14871135

sequential/dense/BiasAdd/ReadVariableOp f4 [100]
0	0x3c146288	0.009056695
1	0x3d38dda3	0.045133244
2	0x3d45dd23	0.048306596
3	0x3d07a612	0.03311736
4	0x3cb7a55f	0.022417722
5	0xbcd5ac96	-0.026083272
6	0xbce0e9cc	-0.027455233
7	0x3d6d3e95	0.05792101
8	0x3d3a1eaf	0.04543942
9	0xbccb6779	-0.024829613
10	0xbcb8b7fa	-0.022548664
11	0xbcac5c8d	-0.021040225
12	0xbcd07db1	-0.02545056
13	0x3d2b8f0d	0.04188447
14	0xbbf0719a	-0.007337761
15	0x3c4ce57b	0.012505884
16	0x3d5c00ed	0.05371182
17	0xbd80378f	-0.06260597
18	0xbd5135f3	-0.05107684
19	0xba9240ce	-0.0011158229
20	0x3d112e72	0.035444684
21	0x3cc9523e	0.024575349
22	0xbc370ab7	-0.011171988
23	0xbda1d00a	-0.079010084
24	0xbd0514c2	-0.0324905
25	0x3d40ceac	0.047072098
26	0xbc63d4dc	-0.01390573
27	0x3d3915e1	0.04518688
28	0xbba3c376	-0.004997666
29	0x3d41fceb	0.047360342
30	0xbcb3386d	-0.021877492
31	0xbd115842	-0.03548456
32	0x3d622508	0.055211097
33	0x3d72979c	0.059226617
34	0x3ca536d7	0.020167751
35	0x3da9632a	0.08270867
36	0x3cb99098	0.022651955
37	0xbbe45e4c	-0.006969249
38	0x3cc441d5	0.023957172
39	0xbcdb3142	-0.026756886
40	0xbc5c5d01	-0.013449908
41	0xbcee3b69	-0.029081063
42	0xbce57795	-0.028011123
43	0xbc29b7ab	-0.010358731
44	0xbbb0c939	-0.0053950814
45	0xbc520b26	-0.012820041
46	0xbc1dfd32	-0.009642886
47	0xbdbbfbaa	-0.091788605
48	0x3cb8f39e	0.022577103
49	0xbc7d5162	-0.015461298
50	0x3d24b85c	0.04021488
51	0x3d6f7412	0.058460303
52	0xbc49853a	-0.01229983
53	0x3d8acb7a	0.06777091
54	0x3d1ba4d5	0.037998993
55	0x3c5dbf33	0.013534355
56	0xbc5471c6	-0.012966579
57	0xbc8b9e2c	-0.017043196
58	0xbde6d1d0	-0.11270487
59	0x3d21d871	0.039513055
60	0x3b8f7faa	0.0043792324
61	0x3b52dbaa	0.0032174387
62	0x3c59892a	0.013277331
63	0xbc40d5c3	-0.011769715
64	0xbc12439c	-0.008927252
65	0xbc4d465d	-0.012528983
66	0xbd21bc16	-0.039486013
67	0xbd2eb0c6	-0.042649053
68	0xbc8bf688	-0.017085329
69	0xbc2ea453	-0.010659295
70	0x3c73cb76	0.014880052
71	0x392d53e5	0.00016529819
72	0xbc121cb4	-0.008917976
73	0xbb2df330	-0.0026542656
74	0x3ca5e2ab	0.020249685
75	0x3cc5e323	0.024156159
76	0xbbd370b7	-0.0064526456
77	0x3d017684	0.031607166
78	0x3dc0df09	0.094175406
79	0xbc725a9a	-0.014792109
80	0x3d0c35fe	0.03423118
81	0xbc3bd0a8	-0.011463322
82	0x3dc225b1	0.09479845
83	0xbd466e5b	-0.048445087
84	0xbd07e442	-0.033176668
85	0xbb694a74	-0.0035597356
86	0x3d7d8c60	0.06190145
87	0xbc8f3b37	-0.01748429
88	0xbd0e15dd	-0.03468882
89	0xbd10f6e2	-0.035391696
90	0xbd2efd2b	-0.04272191
91	0x3c495372	0.012287961
92	0xbc567bb4	-0.013091017
93	0x3d862c5e	0.06551431
94	0xbcfc60a1	-0.030807795
95	0x3cc3b303	0.02388907
96	0xbc47b3b5	-0.012188842
97	0x3c71912e	0.014744086
98	0x3c4e946b	0.012608628
99	0xbbadeb26	-0.005307573

sequential/dense_1/BiasAdd/ReadVariableOp f4 [44]
0	0x3ce02d25	0.027365277
1	0x3c83b422	0.016077105
2	0xbd0afb93	-0.033931326
3	0xbba93ba4	-0.0051645804
4	0x3b210579	0.0024569912
5	0xbb14565a	-0.0022634477
6	0x3c6084b0	0.01370351
7	0x3a9c66db	0.0011932509
8	0xbd599ad7	-0.053126182
9	0x3d7f59ae	0.062341385
10	0x3d354a3f	0.04426026
11	0x3b445fe8	0.002996439
12	0x3c3cc6b9	0.011521989
13	0x3d03c456	0.032169662
14	0xbcbf3c72	-0.023344252
15	0x3d3540cb	0.044251245
16	0x3c735ea7	0.01485411
17	0xbd1aa1c0	-0.037751913
18	0x3d84a895	0.06477467
19	0x3d26e065	0.040741343
20	0xbd9c4c55	-0.07631747
21	0xbc11789d	-0.008878854
22	0x3cc49970	0.023998946
23	0xbc794103	-0.015213254
24	0x3cb50af0	0.022099942
25	0xbcc11dd7	-0.023573799
26	0xbe42bb40	-0.19016743
27	0xbc9542ff	-0.018220423
28	0xbe122189	-0.14270605
29	0x3d540bdf	0.051769134
30	0x3c8d5380	0.01725173
31	0x3c9db8eb	0.019253215
32	0xbcf787c2	-0.030216102
33	0x3c1c8d0c	0.009555113
34	0xbb827866	-0.003981638
35	0x3c9d0bb7	0.019170625
36	0x3c910961	0.017704668
37	0xbbe1c246	-0.0068896143
38	0x3d7a04a2	0.061039574
39	0x3cee9346	0.02912296
40	0x3d600bbd	0.054698694
41	0x3cf9e2e5	0.0305037
42	0x3cf58fb6	0.029975753
43	0x3c6a96da	0.014318192

sequential/dense/MatMul f4 [100, 1472]
0	0x3af8654f	0.0018951091
1	0x3d08ba36	0.03338071
2	0xbb24efe5	-0.0025167402
3	0x3cf7c6f0	0.030246228
4	0x3cfc7df3	0.030821776
5	0x3cd5331a	0.026025344
6	0x3d9f880f	0.07789623
7	0xbd3d98eb	-0.046288412
8	0x3bbba848	0.005726848
9	0x3d233ea6	0.039854668
10	0x3d4e5721	0.05037606
11	0xbd369f32	-0.044585414
12	0x3c0c84af	0.008576556
13	0x3da9126f	0.08255469
14	0x3da678b0	0.08128488
15	0xbd54d6b6	-0.051962577
16	0x3d900c89	0.07033641
17	0xbd7303e3	-0.05932988
18	0x3d1a0a54	0.037607506
19	0x3d171ff8	0.036895722
20	0x3d540c9f	0.05176985
21	0xbd6840c0	-0.056702375
22	0xbbbf8f99	-0.0058459756
23	0x3db50c77	0.08840268
24	0xbe0ab269	-0.1354462
25	0x3d009653	0.03139336
26	0x3ce46356	0.027879398
27	0x3d84733f	0.06467294
28	0xbd1256ab	-0.035727184
29	0x3cf7f978	0.030270323
30	0x3d00acce	0.0314148
31	0x3dc3ff32	0.09570159
32	0x3d68f9ab	0.056878727
33	0xbc594edd	-0.013263431
34	0x3cf108b2	0.029423092
35	0xbc590023	-0.0132446615
36	0xbc38a699	-0.011270189
37	0xbd48af32	-0.048995204
38	0xbd33e863	-0.043922793
39	0xb9c2db78	-0.0003716608
40	0xbcfbf918	-0.030758426
41	0xbcc6a66c	-0.024249278
42	0x3ca264dd	0.019823486
43	0x3df9e2a6	0.12201433
44	0x3c9681b9	0.018372403
45	0xbdb5ea11	-0.08882535
46	0x3c9029b4	0.01759801
47	0x3d9ba3bb	0.075995885
48	0x3d93d58b	0.072184645
49	0xbc02532b	-0.007954399
50	0x3d03af53	0.032149624
51	0x3c95c46c	0.018282138
52	0xbdc4b1f7	-0.096042566
53	0xbe15abaf	-0.14616273
54	0x3dac772d	0.084211685
55	0x3c2cb4bd	0.010541138
56	0xbd6018f2	-0.05471129
57	0xbd020653	-0.031744312
58	0x3c4fdaa7	0.012686408
59	0x3d63719a	0.05552826
60	0x3d94970c	0.072553724
61	0x3d2ba7a0	0.041907907
62	0x3bc34884	0.0059595723
63	0xbc35d95a	-0.011099184
64	0xbb808dff	-0.0039231773
65	0x3d890dba	0.06692071
66	0xbd39c8e1	-0.04535759
67	0x3afd5b27	0.0019329534
68	0x3ce2153f	0.027598022
69	0x3c662a75	0.0140482085
70	0xbcd3620e	-0.025803592
71	0x3d4198d6	0.047264896
72	0x3c74bfa2	0.014938267
73	0x3d5373d7	0.051624145
74	0x3c05aa1f	0.008158236
75	0x3ccf8493	0.025331771
76	0xbd1ffaba	-0.03905747
77	0x3dccfc4d	0.1000906
78	0x3d7c0396	0.061526857
79	0x3dcc5aa2	0.09978224
80	0xbce28ebc	-0.027655952
81	0xbd978d46	-0.07399993
82	0x3c4fa29b	0.0126730455
83	0xbd3cbdb5	-0.046079356
84	0xbb5407d4	-0.0032353299
85	0xbd9292b5	-0.071568884
86	0xbcbf8d7d	-0.023382897
87	0x3d68c97f	0.056832787
88	0xbdacc652	-0.08436264
89	0x3dc8946a	0.09793933
90	0x3d883382	0.06650449
91	0xbd13a175	-0.03604265
92	0xbc99cc11	-0.018774064
93	0x3d1e4353	0.038638424
94	0x3d924c8c	0.071435064
95	0xbd3ecca0	-0.046581864
96	0xb94aa960	-0.00019327318
97	0x3c6bfb9c	0.01440325
98	0xbcd4e4cf	-0.02598801
99	0x3cb6977e	0.022289034
100	0xbc048230	-0.00808768
101	0x3cbe8131	0.023254963
102	0xbd5f4427	-0.054508355
103	0x3c8dcae8	0.017308667
104	0xbcabdbb4	-0.020978786
105	0x3d254a4f	0.04035407
106	0x3daa5536	0.08317034
107	0x3cd206ff	0.025638102
108	0x3cace5bf	0.021105645
109	0xbdefff28	-0.11718589
110	0xbc2f0b1f	-0.010683804
111	0x3d01d61f	0.031698342
112	0x3d0ac32a	0.03387753
113	0xbd84e8f8	-0.06489748
114	0xbd7f04a8	-0.0622603
115	0xbcd09237	-0.025460346
116	0xbd645e5e	-0.055754058
117	0xbd6f213f	-0.058381315
118	0x3d6f3b65	0.058406252
119	0xbd1601c2	-0.03662277
120	0x3d1547a0	0.03644526
121	0xbc947ee1	-0.018126907
122	0x3ce49c77	0.02790664
123	0xbc1353a6	-0.008992111
124	0x3cdd1086	0.026985418
125	0xbbfeaf24	-0.0077723432
126	0xbc40b0bd	-0.011760888
127	0x3daeeb6a	0.085409954
128	0x3a8656b2	0.0010249226
129	0x3ce1d942	0.027569417
130	0x3d24a2f1	0.040194456
131	0x3d2efe71	0.042723123
132	0x3c4928b7	0.012277774
133	0xbbe3320a	-0.0069334554
134	0xbd36db23	-0.04464258
135	0x3db07fb8	0.086181104
136	0x3c7f69c6	0.015589183
137	0xbd1c5520	-0.03816712
138	0xbc64b8f9	-0.013960117
139	0xbd091ccb	-0.033474725
140	0x3cd38f1e	0.02582508
141	0x3b491c83	0.003068716
142	0x3c2fc19a	0.010727311
143	0xbc66b34a	-0.014080832
144	0xbcca1732	-0.024669264
145	0x3ce8d34b	0.028421065
146	0xbd8e6f3f	-0.06954812
147	0xbd6710b4	-0.056412414
148	0x3d6adece	0.05734139
149	0xbd02a611	-0.031896655
150	0xbc07dd03	-0.008292439
151	0x3d83dba8	0.064383805
152	0xbd897e1b	-0.06713506
153	0x3d955abd	0.072926976
154	0x3db89cb1	0.090142615
155	0xbd5b7d58	-0.053586334
156	0xbcba68ac	-0.02275499
157	0x3b3171d8	0.0027075913
158	0x3cff394b	0.03115525
159	0xbdaefbbf	-0.085441105
160	0x3da37333	0.07980957
161	0x3d3a91a7	0.04554906
162	0xbcaf6a08	-0.021412864
163	0x3c9a3dbd	0.018828267
164	0x3c87ed7e	0.016592737
165	0x3bce82b4	0.006302202
166	0x3d02199c	0.031762704
167	0xbd07062f	-0.03296488
168	0xbddebe8a	-0.10876186
169	0x3d062f02	0.032759674
170	0x3db1bf84	0.08679107
171	0xbb1aa055	-0.00235941
172	0x3c718170	0.014740333
173	0xbd118591	-0.03552777
174	0x3b1be906	0.0023790016
175	0xbd3d0159	-0.046143863
176	0x3cc8f698	0.024531648
177	0xbd241f1f	-0.040068742
178	0xbd599033	-0.053116035
179	0xbdc42f76	-0.09579365
180	0xbd1f70a5	-0.038925786
181	0xbd441158	-0.047868103
182	0xbc131361	-0.008976788
183	0x3d332578	0.043736905
184	0xbcd6e28a	-0.02623107
185	0xbd2f95c2	-0.04286743
186	0xbd03659b	-0.03207932
187	0xbc566b94	-0.013087172
188	0xbb949fdd	-0.0045356588
189	0xbbbf2f27	-0.0058344784
190	0xbc99155b	-0.01868694
191	0xbc14af72	-0.009075033
192	0xbdd3bcdb	-0.10338756
193	0x3d4165ee	0.04721635
194	0xbe127567	-0.14302598
195	0x3d3e04da	0.046391346
196	0xbe1b0821	-0.1513982
197	0x3b794f71	0.0038041736
198	0xbd8ad19a	-0.067782596
199	0xbd8eafe2	-0.06967141
200	0x3d36cdc9	0.044629846
201	0xbb27f19b	-0.0025626186
202	0xbb0d9829	-0.0021605587
203	0xbdfdb0a9	-0.12387211
204	0xbc3c8027	-0.011505163
205	0x3d55c92d	0.05219381
206	0xbdc63c1d	-0.096794344
207	0xbdc093e9	-0.094032116
208	0x3d9ba4e2	0.07599808
209	0x3de0097e	0.109393105
210	0xbdef8fe5	-0.116973676
211	0x3c8635ca	0.01638307
212	0xbc54c7a2	-0.012987049
213	0x3d88f929	0.066881485
214	0xbd449b85	-0.047999877
215	0x3d029fea	0.031890787
216	0xbd7559fc	-0.05990027
217	0xbd1f7fc5	-0.03894021
218	0x3dbc771d	0.092024066
219	0xbcd5d669	-0.026103215
220	0xbdaf5f4e	-0.085631
221	0x3c883162	0.01662511
222	0x3cd6c9aa	0.026219208
223	0xbddc953c	-0.10770652
224	0x3c2de512	0.010613697
225	0xbd459820	-0.04824078
226	0x3ced570d	0.028972173
227	0xbd2b2bcd	-0.04178982
228	0xbdc6f3c4	-0.09714463
229	0x3c09a980	0.008402228
230	0xbcb84031	-0.022491546
231	0xbd352200	-0.044221878
232	0x3d1c6335	0.03818055
233	0x3ce9e536	0.02855168
234	0x3d0ffc91	0.035152975
235	0xbd17e7ff	-0.037086483
236	0x3dc19d0d	0.09453783
237	0x3d49c359	0.049258564
238	0xbc9d3ee3	-0.019195026
239	0xbd2c96d5	-0.042136032
240	0x3d183b77	0.037166085
241	0xbd3297c4	-0.043601766
242	0x3c2719ff	0.010199069
243	0xbbcaa279	-0.006183919
244	0x3c483d82	0.012221696
245	0x3dbaa9cf	0.0911442
246	0x3d981852	0.07426514
247	0xbe0ff019	-0.14056434
248	0xbe0e4e0c	-0.1389696
249	0xbd83b5e1	-0.06431175
250	0x3c490a9c	0.012270596
251	0x3d7bed28	0.061505467
252	0x3cf86798	0.030322835
253	0xbb8b75bf	-0.00425598
254	0xbdccb885	-0.09996132
255	0x3d48569b	0.04891072

sequential/dense_1/MatMul f4 [44, 100]
0	0xbcc63e76	-0.024199706
1	0xbe207816	-0.15670809
2	0xbe3d32e7	-0.18476449
3	0xbe158906	-0.14603052
4	0x3d0e868a	0.034796275
5	0xbe007098	-0.12542951
6	0xbdb009b5	-0.085956015
7	0x3e0bf4f7	0.13667665
8	0xbdee0561	-0.1162212
9	0xbe363cd5	-0.17796643
10	0xbd0216f5	-0.031760175
11	0x3e186d4d	0.14885445
12	0xbd598fa2	-0.053115495
13	0xbe080cbf	-0.13286112
14	0xbe11e6d5	-0.14248212
15	0x3e1ee09a	0.15515366
16	0x3d854176	0.06506626
17	0xbe2c1bd9	-0.16807498
18	0x3e2d75e0	0.16939497
19	0xbd3f0e7e	-0.04664468
20	0x3cddbc7f	0.027067421
21	0xbdcb0a65	-0.09914092
22	0x3e429282	0.19001201
23	0x3e1a5f78	0.15075481
24	0xbe3eeca9	-0.18644966
25	0xbdd7756b	-0.105204426
26	0x3cfbcce9	0.030737357
27	0xbcc1aa1e	-0.023640689
28	0x3e08f40e	0.1337435
29	0x3d7469fb	0.059671383
30	0x3d620be3	0.055187117
31	0x3d9465e9	0.07246
32	0xbd200629	-0.039068375
33	0xbe5fe133	-0.2186325
34	0xbe1686dc	-0.14699882
35	0xbe18260e	-0.14858267
36	0xbd2bddd7	-0.04195961
37	0x3ddf4372	0.10901536
38	0xbc466572	-0.012109147
39	0x3d4c4725	0.049872536
40	0xbbdcf24a	-0.0067427503
41	0xbdaa1eea	-0.08306678
42	0xbd8cead8	-0.068807304
43	0x3e29f392	0.16596821
44	0x3c377f38	0.011199765
45	0x3df9b76d	0.12193189
46	0xbd346da9	-0.044049893
47	0x3d99ef62	0.07516362
48	0xbe231f0b	-0.1592981
49	0xbc8d5743	-0.017253524
50	0xbdc16b0a	-0.09444244
51	0xbcd40b23	-0.025884217
52	0x3e017cc2	0.12645248
53	0xbe51f367	-0.20503007
54	0xbe0947ef	-0.13406347
55	0x3d15abbe	0.03654074
56	0x3c2561bf	0.010094105
57	0x3dd14773	0.10218706
58	0xbd7bdbf6	-0.061489068
59	0xbb93ca11	-0.004510172
60	0xbe197bfb	-0.14988701
61	0x3e5437df	0.20724438
62	0xbd11cf00	-0.0355978
63	0x3d1d3805	0.038383503
64	0xbceb0693	-0.028689658
65	0x3dc6b072	0.09701623
66	0x3d87a81c	0.06623861
67	0x3ca09c61	0.019605817
68	0xbd162d48	-0.036664277
69	0x3e286626	0.16445217
70	0x3d7b924e	0.061418824
71	0xbe47827b	-0.19483368
72	0xbe17f005	-0.14837654
73	0x3de58ec1	0.11208869
74	0x3df7fe8a	0.12109096
75	0xbe6edf7f	-0.23327444
76	0x3cf5ebf9	0.030019747
77	0x3d890b73	0.06691637
78	0xbe1c55be	-0.15267083
79	0x3e10601b	0.14099161
80	0x3d0b5fa7	0.034026768
81	0x3e1b256e	0.15150997
82	0xbace585e	-0.0015742888
83	0x3d4d49df	0.050119277
84	0x3d386244	0.04501559
85	0xbe0730c9	-0.13202204
86	0xbe17116e	-0.14752743
87	0xbdb1504e	-0.08657895
88	0x3e066fe7	0.13128625
89	0x3e205b39	0.15659799
90	0x3c14c795	0.009080787
91	0xbcc0d90b	-0.023540994
92	0x3e412db7	0.18865095
93	0xbe830d76	-0.25596207
94	0x3e314576	0.17311653
95	0x3dd3e002	0.103454605
96	0xbe1033be	-0.14082238
97	0x3dcaff4d	0.09911976
98	0xbc8a7cca	-0.016905207
99	0xbe53963e	-0.20662782
100	0x3dcc4be0	0.099754095
101	0x3d8810f6	0.0664386
102	0x3e1af637	0.15132986
103	0x3e29de93	0.16588812
104	0x3c8da4ac	0.017290436
105	0xbd821b10	-0.06352818
106	0x3db72cf8	0.08944124
107	0xbc4775de	-0.012174098
108	0xbcc00a2b	-0.023442348
109	0xba89675f	-0.0010483077
110	0x3e03d322	0.1287351
111	0x3dd5c2c1	0.10437537
112	0x3d7b911d	0.061417688
113	0x3c83cd5c	0.016089134
114	0xbe39cbf3	-0.18144207
115	0x3dee611a	0.116396144
116	0xbd5e9931	-0.054345313
117	0xbd4c1cf6	-0.049832307
118	0x3de2224f	0.110417
119	0x3d3a5114	0.04548748
120	0xbe731386	-0.23737916
121	0xbcdc8116	-0.026917022
122	0xbd7cc2f9	-0.061709378
123	0x3e1db0ad	0.15399428
124	0x3ccb2703	0.024798876
125	0xbe417169	-0.18890919
126	0x3bdb4507	0.0066915783
127	0x3abf7f62	0.0014610107
128	0x3d0747d1	0.033027474
129	0x3c4754fa	0.012166256
130	0xbc27622c	-0.010216277
131	0xbe3b3542	-0.18282035
132	0xbe57d95e	-0.21079013
133	0xbe49420b	-0.196541
134	0xbd8419e3	-0.0645025
135	0xbeaee1c5	-0.34156623
136	0x3c9c6f57	0.01909606
137	0x3da8cb62	0.08241917
138	0x3df35b06	0.11882596
139	0x3e1b55a9	0.15169396
140	0xbd8bf37c	-0.0683355
141	0x3cd05eb6	0.025435787
142	0x3d4eeee5	0.050520796
143	0x3e2c7527	0.16841565
144	0x3b847749	0.00404254
145	0xbce6b676	-0.028163176
146	0xbc6f2125	-0.014595305
147	0xbdcbd8d5	-0.09953467
148	0xbd2e5c07	-0.042568233
149	0xbe0f11fd	-0.13971706
150	0x3e3d4ddb	0.18486731
151	0xbdcff4c2	-0.10154106
152	0x3d395bc1	0.04525352
153	0xbe2e94d1	-0.17048956
154	0xbd8913cd	-0.0669323
155	0xbdcfc15c	-0.10144302
156	0xbd8f7894	-0.0700542
157	0x3d8fabcc	0.070151895
158	0x3d13098a	0.03589777
159	0x3da15bab	0.078788124
160	0xbcd49ec2	-0.025954608
161	0xbda82ba3	-0.08211448
162	0xbe0d15df	-0.13777874
163	0xbe2f7199	-0.17133178
164	0xbd5c295c	-0.05375038
165	0xbe6e9121	-0.2329755
166	0xbe0309bc	-0.12796682
167	0x3e2748cc	0.16336364
168	0x3e34fc0c	0.17674273
169	0x3e17d50f	0.14827369
170	0xbd8f2611	-0.069896825
171	0xbdd28c87	-0.1028071
172	0xbb8ab6a0	-0.0042331964
173	0x3d92107c	0.071320504
174	0x3ddf9512	0.10917105
175	0xbdb9ace0	-0.090661764
176	0xbde93a00	-0.11388016
177	0x3c0d0717	0.008607647
178	0xbe04ab35	-0.12955935
179	0x3da8e393	0.08246531
180	0xbc512df1	-0.012767301
181	0xbdd49d09	-0.103815146
182	0xbe3d0d76	-0.18462166
183	0x3e320dac	0.17388028
184	0xbe1b61b0	-0.15173984
185	0xbd6c512b	-0.057694595
186	0xbdb276b3	-0.08714046
187	0x3b99649e	0.004681184
188	0x3e4457b6	0.19174084
189	0xbca89b7b	-0.020581951
190	0xbe18108f	-0.14850067
191	0xbca07799	-0.019588279
192	0xbdb5466f	-0.08851325
193	0xbe5e238c	-0.21693248
194	0xbe0c3b87	-0.13694583
195	0xbe2a5ed2	-0.16637734
196	0x3c18f49b	0.009335662
197	0xbd94b437	-0.07260936
198	0xbd66f70e	-0.056387953
199	0x3cc9761f	0.024592457
200	0xbc93f9d8	-0.01806347
201	0x3e24c638	0.1609124
202	0x3de84b12	0.113424435
203	0xbe414c29	-0.18876709
204	0xbdfbc085	-0.122925796
205	0xbe0b8bda	-0.13627568
206	0xbe40fefc	-0.18847269
207	0xbe728984	-0.2368527
208	0xbe678f08	-0.22613156
209	0xbcaedcbb	-0.021345487
210	0x3dc897be	0.097945675
211	0xbe005415	-0.12532075
212	0xbe0c5a47	-0.13706313
213	0xbdc41d35	-0.09575883
214	0xbe40c3e9	-0.18824734
215	0xbdaed69d	-0.08537028
216	0x3dc6b855	0.09703127
217	0x3e10f489	0.14155783
218	0x3dd22c9c	0.10262415
219	0x3e164e6e	0.14678356
220	0xbe116835	-0.14199908
221	0xbdc3cfa1	-0.095610864
222	0xbe3b623a	-0.18299189
223	0x3da2d564	0.07950857
224	0xbe5abbca	-0.21360698
225	0x3d628a20	0.055307508
226	0x3e28f313	0.16498975
227	0xbdd66c4c	-0.10469875
228	0xbd82f8f5	-0.06395141
229	0xbdd4d58b	-0.103922926
230	0x3db334ca	0.08750303
231	0x3b87ccfa	0.004144308
232	0xbcd00f02	-0.025397781
233	0xbdcab609	-0.09898002
234	0x3cb9a7c7	0.02266301
235	0xbe45a337	-0.19300543
236	0xbd7781d4	-0.060426548
237	0xbd3ccdcd	-0.046094704
238	0x3bc411df	0.0059835757
239	0xbdf3a07c	-0.11895844
240	0x3d20febb	0.03930543
241	0xbdb1106d	-0.08645711
242	0xbd9fb95a	-0.07799025
243	0x3c383d70	0.011245117
244	0x3e1e6661	0.15468742
245	0x3dc1cba2	0.09462668
246	0xbe2bbea4	-0.16771942
247	0x3b00a329	0.00196285
248	0x3ceedbc2	0.029157523
249	0x3e2b20db	0.16711752
250	0x3cc05f59	0.023482965
251	0xbdd31b13	-0.10307898
252	0x3db5e57e	0.08881663
253	0xbe8cdc28	-0.27511716
254	0xbe219f68	-0.15783465
255	0xbdad116a	-0.08450587
